frontend/public/models/policy_model_best.onnx (onnx, 46567 bytes, 6 tensors)

torso.0.weight f4 [128, 4]
000000 71 32 0f 3f 26 83 f2 3e 9e ef 7a bd f6 5b ee 3e
       0.5593634 0.47365683 -0.061263673 0.46554536
000010 c6 a7 ea bd b3 c1 e7 3d 02 8d 83 be 2f 5a 8f 3e
       -0.114577815 0.11316242 -0.25693518 0.27998492
000020 36 8f 20 3f 6f 2d c4 be 1b 4d 11 3f 4f b5 c8 3d
       0.6271852 -0.38315913 0.5675828 0.09800207
000030 50 46 c6 3e 56 c1 9a 3d db f6 55 3e c6 81 41 bd
       0.3872552 0.07556407 0.20894949 -0.047242902
000040 97 b6 c4 3e 3d 47 27 3d 18 a8 7e be a1 b3 29 3e
       0.38420555 0.040839422 -0.2486881 0.16572429
000050 0b 0c 7a be 8c 78 8f bd e3 dd dc bd 73 0b b2 3e
       -0.24418657 -0.07005414 -0.10784509 0.3477436
000060 4d 7a fb be 87 c0 63 be ab f4 17 be d9 f2 8c be
       -0.49116746 -0.22241412 -0.14839427 -0.27529028
000070 e7 b9 43 bc 7b 8a 1c bf d7 08 d1 3e 4f 62 dd be
       -0.011946178 -0.61148804 0.40827057 -0.43239066
000080 20 9b 19 3f bb 7e 44 3e 1e 04 6d bd 80 58 20 3e
       0.60002327 0.19188969 -0.057865255 0.1565876
000090 52 dd 4d 3d 47 8c d7 3e b8 13 62 3c 0a 58 16 be
       0.050259896 0.4209921 0.013798647 -0.14682022
0000a0 4c 7d 80 3e 11 29 6f bd 5d bc bc 3e 42 e9 f6 3e
       0.25095594 -0.058388773 0.3686246 0.48224837
0000b0 d1 92 7a 3e 49 b1 3b be 71 96 ca 3e 7e 6a 0d 3e
       0.24470069 -0.18329348 0.39567903 0.13810155
0000c0 d3 ee c8 3e 2c da a5 be 83 9e 12 bf d0 b2 25 be
       0.39244708 -0.32393014 -0.5727312 -0.16181493
0000d0 b6 ce c0 be 14 7a ce 3e cd 4b 0c 3e 10 37 5b 3e
       -0.37657708 0.40327513 0.1370079 0.21407723
0000e0 7c 28 55 3e 22 9f a0 bc 96 04 66 3e ea 7a cc be
       0.20816225 -0.01960713 0.22462687 -0.39937526
0000f0 92 4c 1a 3d 94 32 91 be 5d 45 c2 3d 90 45 99 be
       0.03767068 -0.283589 0.09485886 -0.29935884
000100 2b a8 17 3e eb 34 c8 bd f1 df 93 3e 66 ef bf be
       0.14810245 -0.09775718 0.2888179 -0.37487334
000110 82 da 02 bf 1e b6 83 be ac a6 1c 3f 74 07 8e bd
       -0.51114666 -0.25724882 0.6119182 -0.06935015
000120 f3 5f 1c 3f fb 7d f5 be 38 13 1d bf 05 2e b8 be
       0.61083907 -0.47947678 -0.6135745 -0.3597261
000130 67 5b ae be b1 2a 9a 3e 38 09 b4 3e 8c 59 de 3e
       -0.3405411 0.30110696 0.35163283 0.43427694
000140 9f 9d 01 bf 82 9f d2 be 1c 4a a5 3e dd 2d a3 be
       -0.50631136 -0.4113732 0.32283103 -0.31870928
000150 a6 53 7b 3e c2 fe 01 be d0 81 64 3e 2e cc c6 be
       0.24543628 -0.12694839 0.22315145 -0.38827652
000160 b5 b6 53 be b9 17 43 3e 2f 88 79 bb 86 df c8 bd
       -0.20675166 0.19052018 -0.0038075557 -0.09808259
000170 ac d9 ed 3e 67 3d 98 3e 15 e5 ef be ee e6 43 be
       0.46455133 0.29734346 -0.46854463 -0.19131061
000180 f0 0a 0a 3f ce cc 47 be a8 4e ab be 81 eb 06 bf
       0.5392294 -0.1951172 -0.33458447 -0.527031
000190 4b 8a bd be 1b 94 90 3d 51 c6 1e be 76 9c b3 be
       -0.37019572 0.07059499 -0.15505339 -0.35080308
0001a0 1e 16 1c 3c 23 13 c2 be 57 12 e6 be 1e e4 b4 be
       0.0095267575 -0.37905225 -0.44935867 -0.3533029
0001b0 14 44 0f bf e9 53 8d be fa 82 0a 3f f2 46 c5 3d
       -0.55963254 -0.2760308 0.54106104 0.09632672
0001c0 1f ac 1e 3e a0 df ff be 71 c2 bc be b1 16 82 be
       0.15495346 -0.499753 -0.36867097 -0.25407937
0001d0 21 d7 f2 3d 53 fd 04 bf e6 89 9b be 6a 27 ae be
       0.11857439 -0.5194904 -0.30378646 -0.34014446
0001e0 36 91 92 bb 69 48 84 be 37 82 f8 bd ad 55 a7 be
       -0.004472877 -0.25836495 -0.121342115 -0.32682553
0001f0 5a 13 05 bf 70 12 dd be 4c bc 2b be 63 69 a2 be
       -0.51982653 -0.4317813 -0.16771048 -0.3172103
000200 28 4e d2 3e 4e a8 b1 bd 87 3d 2d 3f 75 01 90 3e
       0.41075253 -0.0867468 0.6767201 0.28126112
000210 87 be f3 be 5a 97 ab 3e 0b 20 80 be 40 c0 5b be
       -0.47606298 0.3351391 -0.25024447 -0.21460056
000220 61 d5 f6 be 67 26 e2 be 88 03 31 3e e0 0b ad bd
       -0.4820967 -0.44169924 0.17286503 -0.084495306
000230 db 9c ee 3d 72 75 c5 be db fe c8 3e d2 d2 b9 be
       0.116510116 -0.38566166 0.3925694 -0.36293656
000240 f7 94 08 be 71 b5 4b 3e 74 68 03 3f 58 c8 03 3f
       -0.13338076 0.19893433 0.5133126 0.51477575
000250 1b 6b 41 3f 14 a3 cb be 8b 7d f1 3d 60 51 84 be
       0.75554055 -0.39772856 0.117915235 -0.25843334
000260 62 b6 64 be 5c 63 f9 be d4 5c f6 3e b7 1a bc be
       -0.22335199 -0.48708618 0.48117697 -0.36739132
000270 3b 0d b1 3e ca 22 bf 3d 5d 07 9a bd a8 bd 9a be
       0.34580407 0.09332807 -0.07520936 -0.3022282
000280 64 10 1d 3f 03 84 8d 3d 37 13 a7 bd 0e 54 c5 be
       0.61353135 0.06909945 -0.08157962 -0.3854069
000290 f9 e7 65 3e 72 e6 18 bc 2b 27 39 3d 60 ac 06 3f
       0.22451772 -0.009332286 0.04520337 0.52606773
0002a0 b4 55 68 3d 97 7d a1 be 28 ae b4 be 54 2c ae bd
       0.056722358 -0.3154113 -0.3528912 -0.08504549
0002b0 ba a3 a4 3e be 9d a3 bd f8 da 9d be ac 6e 53 be
       0.32156163 -0.07989071 -0.30831122 -0.20647687
0002c0 72 e2 eb be 94 fe 33 3e 1f 10 cb 3e 9a f2 e9 be
       -0.46071202 0.17577583 0.39660737 -0.45692903
0002d0 5c 02 71 3e c6 41 55 3e 38 68 bd 3d db 26 3b 3c
       0.23536056 0.20825872 0.09248394 0.011422838
0002e0 82 64 ee 3e 1c 19 86 3e 89 2e 2c 3e b5 b2 f2 3d
       0.46561056 0.26191032 0.16814627 0.11850492
0002f0 d3 80 ac bd 40 df 9a 3d 6f 0f 37 be 9b 25 cf bd
       -0.08423009 0.07562113 -0.17876981 -0.101145945
000300 e0 ba 1b 3f 14 14 de 3e f0 63 c6 bd 02 98 e7 3d
       0.60832024 0.43374693 -0.0968703 0.1130829
000310 90 d3 e2 bd f5 09 e2 3c d5 fa 8a 3e 44 14 4c 3e
       -0.110755086 0.027592639 0.27144495 0.19929606
000320 05 80 22 bf a1 2e b4 bd ab ce 28 3f a7 a0 9d bb
       -0.6347659 -0.08797956 0.6594035 -0.004810411
000330 aa ec 68 3d 2e 67 83 be fb 14 e2 be 23 2d 08 bf
       0.056866325 -0.25664657 -0.44156632 -0.53193873
000340 d5 75 31 be 77 61 f1 3d 07 ff e1 3e 0e 7b a5 3e
       -0.17330106 0.11786168 0.44139883 0.32320446
000350 84 5c 03 bf 07 cc 9a be d8 18 95 3d a3 37 e2 3e
       -0.5131304 -0.30233786 0.07280129 0.44183072
000360 18 21 94 3d d0 97 04 be 7c d2 53 3e e8 02 43 be
       0.07232875 -0.12948537 0.20685762 -0.19044077
000370 7a e4 b9 be 77 36 ce 3e 4d 9e 99 be f0 dd 39 be
       -0.36307126 0.40275928 -0.30003586 -0.18151069
000380 dd 40 fd be 2d 9f bc 3e 97 c4 c4 3e b1 5b 59 3e
       -0.4946355 0.3684019 0.38431236 0.21226384
000390 71 7f d0 be 3f ee 07 bf 71 f5 b7 be 39 a7 a2 3e
       -0.4072223 -0.5309791 -0.35929444 0.31768206
0003a0 1a 35 be 3e a7 f0 03 3f d7 94 ce 3e 7e 99 3d 3e
       0.37149888 0.5153908 0.4034793 0.18515584
0003b0 16 32 b8 bd 0f 1f f1 be 5a ae ea be 00 97 10 bf
       -0.08993928 -0.47094008 -0.45836145 -0.5648041
0003c0 0d d8 c5 3e c0 59 86 be 93 e1 88 be c2 b0 b1 be
       0.38641396 -0.2624035 -0.267346 -0.34705168
0003d0 9a a0 67 bc 1b d6 9d be e5 2c a6 be d8 c3 76 3e
       -0.0141374115 -0.30827412 -0.32456127 0.24098146
0003e0 71 48 5b be 75 e5 8f 3e af 0a 76 be da 6b aa be
       -0.21414353 0.2810475 -0.24027513 -0.3328541
0003f0 dd a1 73 bd 2c 73 85 be 19 6d 87 be ff 59 05 bf
       -0.059480537 -0.26064432 -0.26450422 -0.5209045

torso.0.bias f4 [128]
000000 6b da 06 3d 6d 53 ca be 1c 72 5b be 4a 3c cf be
       0.032923143 -0.39516774 -0.21430248 -0.40475684
000010 e0 83 a8 3e 5b 72 e9 be c5 48 cf 3e 1b ac cb 3b
       0.32913113 -0.4559506 0.40485206 0.006215585
000020 e7 8b fe bc 64 f3 9a 3e 88 40 91 3b fa e3 87 3e
       -0.03107257 0.30263817 0.0044327416 0.2654112
000030 37 a2 a2 3e fa d8 e1 be 12 bc fc 3d 66 88 d9 3d
       0.31764385 -0.44110852 0.12340559 0.10621719
000040 98 93 d6 3c 36 1f 3a 3d 67 3b d8 3c b6 f6 15 be
       0.026193425 0.04543992 0.026395513 -0.14644894
000050 10 de 99 3c 9b 78 d9 3e b2 56 a2 3e 26 7e 0b 3c
       0.018782645 0.42474827 0.31706768 0.008513963
000060 7c 1a c7 be 7a 87 06 3d fc 55 96 be f8 87 cf 3e
       -0.38887393 0.032844044 -0.29362476 0.40533423
000070 93 47 7a be 8a 74 94 3c e1 b4 9d bd b7 fd eb 3c
       -0.24441366 0.018121976 -0.077005155 0.028807504
000080 3b 58 ca 3e d1 73 21 3d ea 7e b1 3e 68 e8 a9 3e
       0.3952044 0.03941709 0.3466714 0.33185124
000090 05 c5 c9 3e cd 53 db bc aa 46 80 3b 9d 53 4d 3e
       0.39408126 -0.026773358 0.003914674 0.20051427
0000a0 94 55 f5 bd 72 aa 60 3e b6 bc 9d bd 60 e1 9b be
       -0.11979213 0.2194002 -0.077020094 -0.30445385
0000b0 c2 f6 41 3e ab 24 b0 3c 30 74 4f 3e a0 30 e5 3e
       0.18941787 0.02150186 0.20259166 0.4476366
0000c0 2d b9 85 3e f8 30 e6 3e 1e 8d 5a 3d 59 39 aa be
       0.2611784 0.44959235 0.053357236 -0.33246878
0000d0 c0 4a 82 be 2c 76 8e be 7e 99 e1 be 71 41 21 be
       -0.25447655 -0.27824533 -0.44062418 -0.1574762
0000e0 c8 81 ea be 9b fd df be d7 fa 04 be 64 e7 bb be
       -0.4580214 -0.43748173 -0.12986313 -0.36699975
0000f0 e8 29 2d be ed 1a d0 3d 55 ee c6 3e d4 a3 97 bd
       -0.16910517 0.10161386 0.38853708 -0.074042946
000100 07 f4 fb bd 89 b2 12 3e 42 7a 2c be e8 4f b0 bd
       -0.12302404 0.14325918 -0.16843513 -0.08608991
000110 8c 08 90 3e 80 4b c0 be d4 c9 54 3c f1 92 c2 3e
       0.2813152 -0.37557602 0.012987573 0.38002732
000120 e3 80 c0 bb 3f 41 2b 3e 9a bf ea bd f4 2f 1a 3c
       -0.0058747395 0.16724108 -0.11462326 0.009410847
000130 85 2e a5 3c 06 cd 46 3e ff 3d 80 3e a0 00 c9 3e
       0.020163784 0.19414148 0.250473 0.3925829
000140 be cb b4 be 9f ef e7 3c 30 40 ec ba 30 13 8f be
       -0.35311693 0.028312502 -0.00180245 -0.27944326
000150 63 dd 81 bd 52 d8 c5 be e6 96 c8 3e e8 02 6b 3d
       -0.06341054 -0.38641602 0.39177626 0.05737582
000160 db ae df bd f4 f0 68 3e 12 63 cc be 92 10 37 be
       -0.10922023 0.22748166 -0.39919335 -0.17877415
000170 77 88 ad 3c 76 70 e2 be 20 b5 b8 be 24 1b 64 bd
       0.021183236 -0.44226426 -0.36075687 -0.055689946
000180 84 70 b9 3e 43 bc e7 3e 0b 99 9c 3e 0d 13 bf bd
       0.36218655 0.4526082 0.30585513 -0.093298055
000190 c0 21 94 be 3e 7f b8 3e 07 24 3b 3e 75 04 6c 3c
       -0.28932 0.36034578 0.18275462 0.0144053595
0001a0 b1 26 6a 3d cb 83 af be 73 68 09 be 87 93 d4 3e
       0.057165805 -0.34280238 -0.1341875 0.41518804
0001b0 16 40 83 bd 7c b0 da 3c b8 1a ad be d1 4d 74 be
       -0.06408708 0.026695482 -0.33809447 -0.2385781
0001c0 e8 28 97 3c b0 3a 93 be df 3f 06 be e4 27 bb 3d
       0.018452123 -0.28755713 -0.13110302 0.09138468
0001d0 ff 37 fb be 40 bb 87 3d 2c 52 4e be a6 7b 2e be
       -0.4906616 0.06627512 -0.20148534 -0.17039356
0001e0 dc f7 34 3e 99 30 c6 3e a2 16 34 bd 9c 87 1f be
       0.17672676 0.38708952 -0.043966897 -0.15579075
0001f0 a1 13 df be 2e ac 80 be c1 c4 ce be 03 34 a0 bd
       -0.43569663 -0.25131363 -0.40384486 -0.078224204

torso.2.weight f4 [64, 128]
000000 0c ad bb 3d 79 c4 8d bd be 89 ce 3d 3e 38 10 ba
       0.091638654 -0.0692224 0.10084866 -0.0005501545
000010 8c 9b 80 bd ee 05 6e bd a2 4d 9d 3c f2 52 d3 3c
       -0.06279668 -0.058111124 0.019202057 0.025796387
000020 d6 96 c8 3d 4c 93 22 bc 65 e5 a2 3d fc 1a ae bc
       0.09794395 -0.009922814 0.0795391 -0.021253102
000030 e2 83 78 3d bf b9 31 3c be 09 e4 3b d9 3f 7c 3d
       0.06067265 0.010847508 0.006959169 0.061584327
000040 0d 6e ce bc 1f 2b d3 bc a7 43 cb bb a0 88 58 3e
       -0.02519896 -0.025777398 -0.006203133 0.21145868
000050 9f 91 ca bb b2 2d 0d 3d 94 4d 7e bd 9f 01 79 3d
       -0.00618191 0.034467407 -0.062085703 0.06079256
000060 e0 ba 0f 3d b2 96 bb 3a 25 44 71 bc da 33 66 3c
       0.035090327 0.0014311878 -0.01472572 0.014050448
000070 a1 1b 0b 3a a9 5e 40 bd 0a bb dc bc b5 d5 aa 3d
       0.0005306546 -0.046965275 -0.026944656 0.08341543
000080 6a e9 fa 3d 09 f0 5b 3d e6 ea 85 bd a2 05 96 3d
       0.122515514 0.053695712 -0.06538944 0.07325293
000090 c6 38 ce 3c 65 05 31 3d 04 1d 05 bd fb 01 36 39
       0.025173556 0.043218035 -0.032498375 0.0001735761
0000a0 e1 11 71 3d f5 3e e5 3c 28 62 dd bd cc f9 af bb
       0.05885494 0.027984122 -0.108097374 -0.0053703543
0000b0 47 23 fd bb bc 59 cd 3d ca 83 3a bd 52 c2 ed bb
       -0.0077251527 0.10026881 -0.04553584 -0.007255831
0000c0 e5 67 61 bd 07 3c 76 bb 02 b1 a3 3d dc 53 d9 3d
       -0.055030722 -0.00375724 0.07992746 0.10611698
0000d0 cb c2 c9 3d f1 55 b2 3d d2 aa 8d 3c 1c 91 07 3d
       0.09851607 0.08707798 0.017293368 0.03309737
0000e0 c1 ec a2 3d 8e d6 5b 3d a9 22 45 bc f7 94 42 3c
       0.079553135 0.053671412 -0.012032189 0.011876336
0000f0 ae c9 c9 3d 4d d2 64 bd 97 18 46 bd 91 58 9c bd
       0.098529205 -0.05586462 -0.048363294 -0.0763408
000100 3f ee fb 3a 95 2f 7c bd bb c6 51 3d 36 f5 03 3d
       0.0019220783 -0.061568815 0.051214915 0.032216273
000110 1e 0b 0d bd dd fa 70 3c e7 67 bd 3c de ad 37 3d
       -0.03443443 0.014708248 0.023120834 0.044843547
000120 02 90 c2 3d aa cd ae bd 36 72 cc 3d c6 0f b2 3d
       0.095001236 -0.08535321 0.099827215 0.08694415
000130 d4 6e 02 3e c3 6b 20 bc 48 92 2d 3d 3d 2c 4b 3c
       0.1273759 -0.009791317 0.042375833 0.012400684
000140 4f fa 16 bc 5d d9 b4 3d 60 b8 b9 3d 74 fe 48 3d
       -0.009214952 0.08830521 0.0906837 0.04907079
000150 eb be 56 bd e4 60 30 3d 5e 73 27 3d 99 1e 2f 3d
       -0.052428167 0.043061152 0.040881507 0.04275379
000160 4b e6 9a bd 46 ad f0 bc ae 05 9b bc a5 e6 00 be
       -0.07563456 -0.029379498 -0.018923607 -0.12587984
000170 1b 31 65 3d 3a 0b 48 3d c8 42 81 b9 40 16 84 3d
       0.055955034 0.04883883 -0.00024654553 0.06449556
000180 a9 60 7c bd 77 2c 41 bd 42 32 84 3d 9b 0d 1b 3e
       -0.06161562 -0.047161546 0.064548984 0.15141909
000190 00 fa 80 3c 66 de 39 bb 37 49 4a 3c 3d ec 03 3e
       0.01574421 -0.002836132 0.012346557 0.12883087
0001a0 52 c8 92 bd 2f 8e ca bd 97 73 53 3d e5 ba b7 bc
       -0.07167114 -0.098904006 0.051623907 -0.022427985
0001b0 9e c7 14 3c 29 3b 50 3e fb 31 b3 3d 0d 14 f6 3c
       0.009080796 0.20335068 0.087497674 0.030038858
0001c0 a5 d0 c3 bb d3 66 63 bc 86 64 6e 3d 9d 16 99 bd
       -0.0059758 -0.013879496 0.058201335 -0.07475016
0001d0 7c 14 8a b9 dd 00 fc 3d 39 6a 83 bc 9f 48 af 3d
       -0.00026336673 0.12304852 -0.016041862 0.08558773
0001e0 b1 0e 33 bd f9 25 58 bc da b7 8f 3d 49 2c c5 bd
       -0.043715183 -0.013192647 0.07017489 -0.09627587
0001f0 16 e1 0f be 9c e8 07 3d 96 58 63 bc 76 e8 d8 bd
       -0.14050707 0.033180818 -0.013876101 -0.105912134
000200 25 f1 52 bd ea e9 b2 3d 8b 5a 5a 3c e3 bb 9b 3d
       -0.051499505 0.08736022 0.013327251 0.07604196
000210 1a b2 95 bd 62 b7 1e bd 59 8a 1b bd b8 80 00 bd
       -0.07309361 -0.038749106 -0.037973735 -0.031372756
000220 f5 0a 49 bd 5c 15 55 bc 22 5e cc bb 04 8f 1d bd
       -0.049082715 -0.013005581 -0.0062368074 -0.03846647
000230 0f 6d 85 bc 87 7e 0f bd 5f db c7 3a c9 fd b0 3b
       -0.016287355 -0.035032775 0.0015247873 0.0054013473
000240 2c b8 8c bd b7 7e b3 bd 05 57 a1 3c b8 ca cc 3a
       -0.068710655 -0.08764403 0.019694814 0.001562438
000250 9b ec 49 bd 4b 49 75 3d 28 35 83 bd d2 b1 2b 3d
       -0.04929791 0.05988435 -0.06406623 0.04191763
000260 04 66 0a 3d 49 02 c2 bd a3 e9 53 3d ec a6 ad bd
       0.033788696 -0.09473092 0.051736485 -0.084791034
000270 4f 39 8e bd 2f 13 15 bd 6f 43 a1 bd aa 79 8a 3d
       -0.069445245 -0.036395248 -0.0787419 0.06761487
000280 1b 62 0d bd 60 99 83 3c be 30 9e bd c5 f4 55 3c
       -0.03451739 0.016064346 -0.077241406 0.013058846
000290 ec 96 1b bd 22 c3 8f bd 2d 71 b3 3a 2e b5 b6 3c
       -0.037985727 -0.070196405 0.0013690345 0.02230319
0002a0 d8 a7 73 3d 1c dc 8b bd 7c 03 83 bd b0 97 13 3d
       0.05948624 -0.06829092 -0.06397149 0.036033332
0002b0 33 da bc ba 3b ab 81 3c 01 51 f7 3c cc fc 3a bd
       -0.001440829 0.01582872 0.030189993 -0.045651242
0002c0 95 a2 fb 3c 6b f4 18 3d 70 b5 33 bd 49 a6 1d 3d
       0.030717174 0.03734247 -0.043874204 0.03848866
0002d0 7a e2 30 3d 2a ab 9f 3d b4 bc 4d bd 92 4b 62 bd
       0.043184735 0.07796319 -0.05022879 -0.05524785
0002e0 e3 5b d1 bc 46 eb 92 3b 02 0b 6a 3d cc 89 70 bd
       -0.02555651 0.004483613 0.057139404 -0.058725163
0002f0 e6 78 0a 3d 77 22 1c bd 75 6e f6 3c 79 8f d8 bc
       0.033806704 -0.038118806 0.030081967 -0.0264356
000300 b3 96 9e bd 5b 36 9f bd fd 2b 9d bd f7 56 20 3d
       -0.07743587 -0.07774039 -0.07674406 0.039145436
000310 68 a2 9f bd 4e 4e c9 bc f7 68 fb 3a 09 fc 9b bd
       -0.077946484 -0.024573471 0.0019181062 -0.07616431
000320 00 c7 e4 3b b3 52 a0 bd f9 29 80 39 f2 97 d2 bd
       0.0069817305 -0.078282736 0.00024445335 -0.102828875
000330 f1 44 25 bd f7 e9 42 bd c0 d7 77 3b 8f 7c 0c bd
       -0.04034895 -0.047586408 0.0037817806 -0.034298476
000340 19 30 2a 3d a6 cc 7f 3d 71 e5 01 3d 68 36 24 bd
       0.041549776 0.062451027 0.031712953 -0.04009095
000350 a5 5c c7 bd 2b d4 f8 3b 60 87 88 bd 71 46 21 3d
       -0.097344674 0.007593652 -0.06666446 0.03937382
000360 09 ff 50 3d 2a c1 be 3c 36 da a9 3d a3 b7 8e 3d
       0.05102447 0.023285467 0.082935736 0.0696862
000370 5e da 85 3c 5a 89 89 bd bc 4a 8b 3d 9b b9 5c bd
       0.016339477 -0.06715651 0.06801364 -0.053887945
000380 4a 95 7e bd 37 cf 43 3d 37 4a 44 3d 79 f1 21 3d
       -0.062154092 0.047805037 0.04792234 0.039536927
000390 eb 5f c6 3c a1 d6 cb bd 29 e0 07 bd 1a 24 8a 3d
       0.02421566 -0.099530466 -0.03317276 0.06745167
0003a0 05 d4 3d 3a ed f9 f7 3b e7 5c 0f bd 5f 6f 62 bd
       0.0007241371 0.0075676353 -0.035000708 -0.055281993
0003b0 c7 bc 9d 3d 53 63 6d 3c 27 6a a2 3d fe d4 ff 3b
       0.07702022 0.014489013 0.07930403 0.007807373
0003c0 c1 c2 35 3c 4d 70 15 3d 9d 23 a7 ba e3 7f 0e 3d
       0.011093796 0.03648405 -0.0012751702 0.03478993
0003d0 bc de 62 3d e6 46 a3 3d fc 68 c0 3d e7 24 b9 bc
       0.055388197 0.07972507 0.09395024 -0.022600604
0003e0 51 3f c2 bd 72 22 e6 ba 22 75 45 bc 48 47 77 3c
       -0.09484733 -0.0017557873 -0.012051852 0.015092678
0003f0 cd 3a bd bc bd 38 88 3b 2c 07 57 3d 4a ad a1 3b
       -0.023099327 0.0041571544 0.052497074 0.0049339877

torso.2.bias f4 [64]
000000 97 ef f2 b9 fc 44 b0 bd 1b f4 63 bd e8 3d 67 bd
       -0.00046336345 -0.08606908 -0.05565272 -0.056455523
000010 25 8b 52 3d ed 08 9c 3d 63 5c ce bc ca f0 6b bd
       0.05140223 0.0761889 -0.025190538 -0.05760268
000020 0b 06 a2 bc 9b df 67 3d fb a3 c5 3d de 99 32 3d
       -0.019778272 0.05660973 0.096504174 0.04360377
000030 8f 74 87 bc 86 cc 82 3d cb ea 38 3d 85 72 5a 3d
       -0.016535072 0.06386666 0.04514579 0.05333187
000040 5e ad a0 3d b7 2d a7 bc aa 5f 40 3d 6e 56 cc 3c
       0.07845567 -0.02040754 0.046966232 0.024943557
000050 d2 da d4 3c 4c 48 f8 bc ad 1c 42 3d 4f 43 be bd
       0.025983248 -0.030307911 0.04739063 -0.09290182
000060 cf e4 a2 3d d1 c9 b5 bd 4d c0 8d bd da b1 9c bd
       0.07953798 -0.08876384 -0.06921444 -0.0765111
000070 49 ec d4 3c 07 8e 84 bc 8e 06 b0 bd ee 95 03 3d
       0.025991576 -0.016181005 -0.08595 0.032125406
000080 33 3a 9a 3c e8 c6 e1 3d fa a3 8a bd a7 32 91 bd
       0.01882658 0.110242665 -0.06769557 -0.07089739
000090 5b 04 41 3d 2d 54 74 3d 83 04 a6 3d 6d ff d6 3c
       0.047123294 0.05965059 0.08106329 0.026244843
0000a0 9d f6 f3 3c b5 7b cb 3d 88 e0 78 3a 6d 44 ca bd
       0.02978068 0.099357046 0.0009493907 -0.098763324
0000b0 f5 07 af bd 63 bb 52 bd de 93 b7 bb f3 e2 d5 3d
       -0.085464396 -0.051448237 -0.005602344 0.10443678
0000c0 64 73 70 3d f5 61 4f bd 51 2d 1e 3c a7 26 e4 3d
       0.058703795 -0.05063053 0.009654359 0.11140185
0000d0 b6 e6 fe 3c a7 5d 0a 3b 43 c7 05 bd d3 8f 10 bb
       0.03111587 0.002111295 -0.032660734 -0.0022058382
0000e0 fa 1e 60 3d cf 8f 0d bd 0b f9 01 bd 54 f5 28 3d
       0.05471704 -0.034560975 -0.031731647 0.041249588
0000f0 d5 26 17 bb dd 5f 10 bd ea fd d3 3b f0 09 d7 3d
       -0.0023063917 -0.035247672 0.006469478 0.10499942

head.weight f4 [3, 64]
000000 81 7c a7 bd be 9d f1 3a 71 a3 44 bd a1 dd 81 3d
       -0.08178044 0.0018433852 -0.048007432 0.063411005
000010 5d ca 05 bb 34 0e 1c be b6 70 cb bd 15 67 82 bd
       -0.0020414807 -0.15239793 -0.09933607 -0.063673176
000020 46 b8 6b be c6 49 99 3c 7b f7 63 3e 6d 68 87 bd
       -0.23019513 0.018711936 0.22262375 -0.066117145
000030 fe 1f ad 3d bf 38 72 bd 34 d0 02 be b7 ce 33 be
       0.08453368 -0.05913615 -0.12774736 -0.17559324
000040 b8 89 3d be 1c f4 35 3e db b1 e4 3d 9b 28 75 3e
       -0.18509567 0.17768902 0.11166736 0.23941271
000050 8c 30 26 be ac 4f 0c 3d 20 84 cd bc 48 48 dc 3d
       -0.16229457 0.03425567 -0.025087416 0.10755974
000060 52 38 6f be 5c 94 e3 bc 6e c3 ed bd 52 e3 4e 3d
       -0.23361328 -0.027780704 -0.11609541 0.05050976
000070 d9 88 e3 bd 10 59 a4 bd 78 d0 ec 3c 23 63 5a 3e
       -0.11110086 -0.080248 0.028908 0.2132688
000080 b6 a7 50 3d 71 55 0a 3d 4f bd 17 3d a3 e2 96 3d
       0.05094119 0.03377289 0.037045773 0.07367446
000090 0e 7e 37 be fb 07 3d 3e a4 b6 ad 3a 36 f3 32 3e
       -0.1791918 0.18460076 0.0013253284 0.1747559
0000a0 af 30 85 be b9 1c 3a be d0 f4 cc bd b3 76 c3 bd
       -0.26013705 -0.1817502 -0.10007632 -0.095441245
0000b0 5e 82 b9 b7 2e 9d 9b bd 49 54 f1 3d 73 ae 79 3d
       -2.2114426e-05 -0.07598339 0.11783654 0.060957383
0000c0 0d 84 7d 3d 0e 15 0a 3e 52 58 4b 3e 5b 18 0e 3d
       0.06189351 0.13484594 0.1985791 0.034691196
0000d0 d5 18 ab bd 3a 86 79 be 06 90 78 3e ad 04 6e 3d
       -0.08354346 -0.2436761 0.2427369 0.058109928
0000e0 ed e6 b9 bd d7 b5 a7 3d 75 90 89 3c f4 58 cd bd
       -0.09077249 0.0818898 0.016792515 -0.10026732
0000f0 17 19 42 be 4e 9d 6b 3d 7b e2 f2 bc 2b 0c 7a bd
       -0.18954884 0.057523064 -0.02964901 -0.06104676
000100 c8 c9 5a 3d 4a 79 c4 3d cc bc 76 3c e2 f4 e1 3d
       0.05341509 0.095934466 0.015059661 0.11033036
000110 71 08 61 3d 4b 3d 08 3e 84 dc e6 3d f5 8a 80 3b
       0.05493969 0.13304631 0.11272529 0.003922815
000120 aa 59 5b 3e f6 64 6c 3d 4a 56 80 be 19 5c 01 3e
       0.21420923 0.05771347 -0.25065833 0.12632789
000130 f2 a2 a9 bc 85 4e 54 bd 8d 27 1c 3e 86 02 24 bd
       -0.020707581 -0.051832695 0.15249462 -0.04004147
000140 83 c7 23 3e 08 28 3f be 77 b2 81 bd c1 be 71 be
       0.15994076 -0.18667614 -0.063328676 -0.23607923
000150 fa d0 74 3e 57 58 1f 3d af da e4 3d ea 77 5e 3d
       0.23907843 0.038902607 0.11174523 0.054313578
000160 1b 60 93 3d 08 04 4f 3c 56 8c a5 3d bd 0a 0a be
       0.07196065 0.0126352385 0.080834076 -0.13480659
000170 08 8c 8e bd fc 9e 20 bd 22 ef 9f bd ce 93 e4 bd
       -0.069603026 -0.03921412 -0.07809283 -0.11161004
000180 4d bc 2f 3e e3 11 f9 3d 45 64 2d be 10 60 14 be
       0.17161675 0.12161615 -0.16932781 -0.1448977
000190 a1 24 2b 3e 71 9b e1 bd 8f 40 a2 bc 68 1c 35 bd
       0.16713192 -0.11015976 -0.019806175 -0.044216543
0001a0 df 3d f3 3d a4 05 46 3e 14 33 b3 3c 67 1c 91 3d
       0.11877035 0.19338089 0.021874942 0.070854954
0001b0 78 a6 b3 bb 1b 2f 23 3e 3d 6d 82 3b 33 f2 15 bd
       -0.005482491 0.15935938 0.0039803074 -0.036607932
0001c0 46 b0 61 be 78 e2 bb bd c7 7c 2e be ab a7 03 be
       -0.22039899 -0.09174055 -0.17039786 -0.12856929
0001d0 61 72 92 bd 50 ee e8 3d b0 bc 7c be dc 3a 86 bd
       -0.07150722 0.113735795 -0.24681354 -0.06554195
0001e0 67 36 3f 3d 69 6b 84 3d 9f 71 e6 bd d1 b5 1e 3e
       0.04668274 0.06465799 -0.1125214 0.15499045
0001f0 cf 61 d4 3d c4 1a 74 3d 1d e4 59 3d ed 56 7e 3d
       0.10370218 0.05959584 0.05319606 0.062094618
000200 b3 d5 f0 bc 6b c3 8f 3d a9 9b 31 be dd 1c 69 3d
       -0.029398775 0.07019695 -0.17344536 0.05691229
000210 90 d0 ce 3d 63 64 f3 3d fb 21 05 be 5b 9f 45 be
       0.10098374 0.118843816 -0.13001244 -0.1929907
000220 4b b8 23 bd 55 da 75 3e da ac de 3c 2f 29 99 bd
       -0.039970677 0.24009068 0.027182031 -0.07478558
000230 19 49 64 bd a0 c4 06 be 47 11 67 3e 03 bc 3c 3e
       -0.055733774 -0.13160944 0.22565185 0.18431096
000240 88 30 a4 3c 85 f5 06 be f3 25 39 3e 39 37 fd 3c
       0.020042673 -0.13179596 0.18080883 0.030910121
000250 12 66 11 be e0 e5 c4 3d 1f d8 8e 3d 35 3a a5 3c
       -0.14199093 0.09614158 0.069748156 0.020169357
000260 cf da 66 bd ff 03 cb 3d e1 93 ee 3d 28 08 58 3d
       -0.056361016 0.099128716 0.116492994 0.052742153
000270 a8 c0 a0 3e 2b 0f 3a 3d c8 57 74 3d 40 b5 43 bb
       0.31396985 0.04542462 0.059654027 -0.0029862672
000280 1a 3b 90 bd f1 c5 75 3e c0 04 eb bd ea 78 db bd
       -0.07042523 0.2400129 -0.11475515 -0.10716422
000290 49 46 0d 3e 91 2f 8f bc 48 db 84 3e f5 fb 55 bd
       0.13796343 -0.017478736 0.25948548 -0.052242238
0002a0 b6 60 38 be 58 ce 8a 3c 5e 7e 38 be dd 15 8b 3c
       -0.18005642 0.016944095 -0.18016955 0.016978199
0002b0 d5 b3 38 be 54 4c 05 be cb ca 3b bd f9 a7 76 3e
       -0.1803735 -0.13017398 -0.045847695 0.24087514
0002c0 67 ab cd bd f3 d6 be bd d1 eb 0f 3d 8b 11 61 3e
       -0.10042458 -0.09318342 0.035137 0.21979348
0002d0 bb ab 80 3e 67 60 3a bd 42 e8 9c 39 5b 7b 35 be
       0.2513102 -0.045502093 0.00029927684 -0.17722838
0002e0 25 f4 e5 3d f9 dc 87 3d 84 54 5d 3c 02 14 35 be
       0.112282075 0.06633944 0.01350892 -0.17683414
0002f0 2d e7 e6 3d d3 c4 16 be 2c 7d 40 3c be bb 8c 3e
       0.11274562 -0.1472352 0.011748593 0.27486986

head.bias f4 [3]
000000 5a b1 1a bd cd d9 e6 bc e8 1b cf 3d
       -0.037766792 -0.028180027 0.101127446
